…
<div class=3D"jp-OutputArea jp-Cell-outputArea">

<div class=3D"jp-OutputArea-child">

   =20
    <div class=3D"jp-OutputPrompt jp-OutputArea-prompt"></div>


<div class=3D"jp-RenderedText jp-OutputArea-output" data-mime-type=3D"text/=
plain">
<pre>----------------------------------------------------------------
        Layer (type)               Output Shape         Param #
=3D=3D=3D=3D=3D=3D=3D=3D=3D=3D=3D=3D=3D=3D=3D=3D=3D=3D=3D=3D=3D=3D=3D=3D=3D=
=3D=3D=3D=3D=3D=3D=3D=3D=3D=3D=3D=3D=3D=3D=3D=3D=3D=3D=3D=3D=3D=3D=3D=3D=3D=
=3D=3D=3D=3D=3D=3D=3D=3D=3D=3D=3D=3D=3D=3D
            Conv2d-1           [-1, 64, 26, 26]           1,792
              ReLU-2           [-1, 64, 26, 26]               0
            Conv2d-3          [-1, 128, 24, 24]          73,856
              ReLU-4          [-1, 128, 24, 24]               0
         MaxPool2d-5          [-1, 128, 12, 12]               0
            Conv2d-6          [-1, 256, 10, 10]         295,168
              ReLU-7          [-1, 256, 10, 10]               0
         MaxPool2d-8            [-1, 256, 5, 5]               0
            Conv2d-9            [-1, 512, 3, 3]       1,180,160
             ReLU-10            [-1, 512, 3, 3]               0
        MaxPool2d-11            [-1, 512, 1, 1]               0
           Conv2d-12            [-1, 512, 1, 1]         262,656
             ReLU-13            [-1, 512, 1, 1]               0
AdaptiveMaxPool2d-14            [-1, 512, 2, 2]               0
           Conv2d-15             [-1, 10, 1, 1]          20,490
           Linear-16                 [-1, 1024]          11,264
             ReLU-17                 [-1, 1024]               0
           Linear-18                   [-1, 10]          10,250
=3D=3D=3D=3D=3D=3D=3D=3D=3D=3D=3D=3D=3D=3D=3D=3D=3D=3D=3D=3D=3D=3D=3D=3D=3D=
=3D=3D=3D=3D=3D=3D=3D=3D=3D=3D=3D=3D=3D=3D=3D=3D=3D=3D=3D=3D=3D=3D=3D=3D=3D=
=3D=3D=3D=3D=3D=3D=3D=3D=3D=3D=3D=3D=3D=3D
Total params: 1,855,636
Trainable params: 1,855,636
Non-trainable params: 0
----------------------------------------------------------------
Input size (MB): 0.01
Forward/backward pass size (MB): 2.48
…
<div class=3D"jp-OutputArea jp-Cell-outputArea">

<div class=3D"jp-OutputArea-child">

   =20
    <div class=3D"jp-OutputPrompt jp-OutputArea-prompt"></div>


<div class=3D"jp-RenderedText jp-OutputArea-output" data-mime-type=3D"text/=
plain">
<pre>----------------------------------------------------------------
        Layer (type)               Output Shape         Param #
=3D=3D=3D=3D=3D=3D=3D=3D=3D=3D=3D=3D=3D=3D=3D=3D=3D=3D=3D=3D=3D=3D=3D=3D=3D=
=3D=3D=3D=3D=3D=3D=3D=3D=3D=3D=3D=3D=3D=3D=3D=3D=3D=3D=3D=3D=3D=3D=3D=3D=3D=
=3D=3D=3D=3D=3D=3D=3D=3D=3D=3D=3D=3D=3D=3D
            Conv2d-1           [-1, 64, 26, 26]           1,792
              ReLU-2           [-1, 64, 26, 26]               0
            Conv2d-3          [-1, 128, 24, 24]          73,856
              ReLU-4          [-1, 128, 24, 24]               0
         MaxPool2d-5          [-1, 128, 12, 12]               0
            Conv2d-6          [-1, 256, 10, 10]         295,168
              ReLU-7          [-1, 256, 10, 10]               0
         MaxPool2d-8            [-1, 256, 5, 5]               0
            Conv2d-9            [-1, 512, 3, 3]       1,180,160
             ReLU-10            [-1, 512, 3, 3]               0
AdaptiveMaxPool2d-11            [-1, 512, 2, 2]               0
           Conv2d-12             [-1, 10, 1, 1]          20,490
           Linear-13                 [-1, 1024]          11,264
             ReLU-14                 [-1, 1024]               0
           Linear-15                   [-1, 10]          10,250
=3D=3D=3D=3D=3D=3D=3D=3D=3D=3D=3D=3D=3D=3D=3D=3D=3D=3D=3D=3D=3D=3D=3D=3D=3D=
=3D=3D=3D=3D=3D=3D=3D=3D=3D=3D=3D=3D=3D=3D=3D=3D=3D=3D=3D=3D=3D=3D=3D=3D=3D=
=3D=3D=3D=3D=3D=3D=3D=3D=3D=3D=3D=3D=3D=3D
Total params: 1,592,980
Trainable params: 1,592,980
Non-trainable params: 0
----------------------------------------------------------------
Input size (MB): 0.01
Forward/backward pass size (MB): 2.47
…
<div class=3D"jp-OutputArea jp-Cell-outputArea">

<div class=3D"jp-OutputArea-child">

   =20
    <div class=3D"jp-OutputPrompt jp-OutputArea-prompt"></div>


<div class=3D"jp-RenderedText jp-OutputArea-output" data-mime-type=3D"text/=
plain">
<pre>----------------------------------------------------------------
        Layer (type)               Output Shape         Param #
=3D=3D=3D=3D=3D=3D=3D=3D=3D=3D=3D=3D=3D=3D=3D=3D=3D=3D=3D=3D=3D=3D=3D=3D=3D=
=3D=3D=3D=3D=3D=3D=3D=3D=3D=3D=3D=3D=3D=3D=3D=3D=3D=3D=3D=3D=3D=3D=3D=3D=3D=
=3D=3D=3D=3D=3D=3D=3D=3D=3D=3D=3D=3D=3D=3D
            Conv2d-1           [-1, 64, 26, 26]           1,792
              ReLU-2           [-1, 64, 26, 26]               0
            Conv2d-3          [-1, 128, 24, 24]          73,856
              ReLU-4          [-1, 128, 24, 24]               0
         MaxPool2d-5          [-1, 128, 12, 12]               0
            Conv2d-6          [-1, 256, 10, 10]         295,168
              ReLU-7          [-1, 256, 10, 10]               0
 AdaptiveMaxPool2d-8            [-1, 256, 2, 2]               0
            Conv2d-9             [-1, 10, 1, 1]          10,250
           Linear-10                 [-1, 1024]          11,264
             ReLU-11                 [-1, 1024]               0
           Linear-12                   [-1, 10]          10,250
=3D=3D=3D=3D=3D=3D=3D=3D=3D=3D=3D=3D=3D=3D=3D=3D=3D=3D=3D=3D=3D=3D=3D=3D=3D=
=3D=3D=3D=3D=3D=3D=3D=3D=3D=3D=3D=3D=3D=3D=3D=3D=3D=3D=3D=3D=3D=3D=3D=3D=3D=
=3D=3D=3D=3D=3D=3D=3D=3D=3D=3D=3D=3D=3D=3D
Total params: 402,580
Trainable params: 402,580
Non-trainable params: 0
----------------------------------------------------------------
Input size (MB): 0.01
Forward/backward pass size (MB): 2.34
…
<div class=3D"jp-OutputArea jp-Cell-outputArea">

<div class=3D"jp-OutputArea-child">

   =20
    <div class=3D"jp-OutputPrompt jp-OutputArea-prompt"></div>


<div class=3D"jp-RenderedText jp-OutputArea-output" data-mime-type=3D"text/=
plain">
<pre>----------------------------------------------------------------
        Layer (type)               Output Shape         Param #
=3D=3D=3D=3D=3D=3D=3D=3D=3D=3D=3D=3D=3D=3D=3D=3D=3D=3D=3D=3D=3D=3D=3D=3D=3D=
=3D=3D=3D=3D=3D=3D=3D=3D=3D=3D=3D=3D=3D=3D=3D=3D=3D=3D=3D=3D=3D=3D=3D=3D=3D=
=3D=3D=3D=3D=3D=3D=3D=3D=3D=3D=3D=3D=3D=3D
            Conv2d-1           [-1, 64, 24, 24]           4,864
              ReLU-2           [-1, 64, 24, 24]               0
            Conv2d-3          [-1, 128, 22, 22]          73,856
              ReLU-4          [-1, 128, 22, 22]               0
 AdaptiveMaxPool2d-5            [-1, 128, 2, 2]               0
            Conv2d-6             [-1, 10, 1, 1]           5,130
            Linear-7                 [-1, 1024]          11,264
              ReLU-8                 [-1, 1024]               0
            Linear-9                   [-1, 10]          10,250
=3D=3D=3D=3D=3D=3D=3D=3D=3D=3D=3D=3D=3D=3D=3D=3D=3D=3D=3D=3D=3D=3D=3D=3D=3D=
=3D=3D=3D=3D=3D=3D=3D=3D=3D=3D=3D=3D=3D=3D=3D=3D=3D=3D=3D=3D=3D=3D=3D=3D=3D=
=3D=3D=3D=3D=3D=3D=3D=3D=3D=3D=3D=3D=3D=3D
Total params: 105,364
Trainable params: 105,364
Non-trainable params: 0
----------------------------------------------------------------
Input size (MB): 0.01
Forward/backward pass size (MB): 1.53
…
<div class=3D"jp-OutputArea jp-Cell-outputArea">

<div class=3D"jp-OutputArea-child">

   =20
    <div class=3D"jp-OutputPrompt jp-OutputArea-prompt"></div>


<div class=3D"jp-RenderedText jp-OutputArea-output" data-mime-type=3D"text/=
plain">
<pre>----------------------------------------------------------------
        Layer (type)               Output Shape         Param #
=3D=3D=3D=3D=3D=3D=3D=3D=3D=3D=3D=3D=3D=3D=3D=3D=3D=3D=3D=3D=3D=3D=3D=3D=3D=
=3D=3D=3D=3D=3D=3D=3D=3D=3D=3D=3D=3D=3D=3D=3D=3D=3D=3D=3D=3D=3D=3D=3D=3D=3D=
=3D=3D=3D=3D=3D=3D=3D=3D=3D=3D=3D=3D=3D=3D
            Conv2d-1           [-1, 64, 26, 26]           1,792
              ReLU-2           [-1, 64, 26, 26]               0
 AdaptiveMaxPool2d-3             [-1, 64, 2, 2]               0
            Conv2d-4             [-1, 10, 1, 1]           2,570
            Linear-5                 [-1, 1024]          11,264
              ReLU-6                 [-1, 1024]               0
            Linear-7                   [-1, 10]          10,250
=3D=3D=3D=3D=3D=3D=3D=3D=3D=3D=3D=3D=3D=3D=3D=3D=3D=3D=3D=3D=3D=3D=3D=3D=3D=
=3D=3D=3D=3D=3D=3D=3D=3D=3D=3D=3D=3D=3D=3D=3D=3D=3D=3D=3D=3D=3D=3D=3D=3D=3D=
=3D=3D=3D=3D=3D=3D=3D=3D=3D=3D=3D=3D=3D=3D
Total params: 25,876
Trainable params: 25,876
Non-trainable params: 0
----------------------------------------------------------------
Input size (MB): 0.01
Forward/backward pass size (MB): 0.68
…
.bp3-callout.bp3-intent-danger[class*=3D"bp3-icon-"]::before, .bp3-callout.=
bp3-intent-danger > .bp3-icon:first-child, .bp3-callout.bp3-intent-danger .=
bp3-heading { color: rgb(194, 48, 48); }

.bp3-dark .bp3-callout.bp3-intent-danger { background-color: rgba(219, 55, =
55, 0.25); }

.bp3-dark .bp3-callout.bp3-intent-danger[class*=3D"bp3-icon-"]::before, .bp=
3-dark .bp3-callout.bp3-intent-danger > .bp3-icon:first-child, .bp3-dark .b=
p3-callout.bp3-intent-danger .bp3-heading { color: rgb(255, 115, 115); }

.bp3-running-text .bp3-callout { margin: 20px 0px; }

.bp3-card { border-radius: 3px; box-shadow: rgba(16, 22, 26, 0.15) 0px 0px =
0px 1px, rgba(16, 22, 26, 0) 0px 0px 0px, rgba(16, 22, 26, 0) 0px 0px 0px; =
background-color: rgb(255, 255, 255); padding: 20px; transition: transform =
200ms cubic-bezier(0.4, 1, 0.75, 0.9) 0s, box-shadow 200ms cubic-bezier(0.4=
, 1, 0.75, 0.9) 0s, -webkit-transform 200ms cubic-bezier(0.4, 1, 0.75, 0.9)=
 0s, -webkit-box-shadow 200ms cubic-bezier(0.4, 1, 0.75, 0.9) 0s; }

.bp3-card.bp3-dark, .bp3-dark .bp3-card { box-shadow: rgba(16, 22, 26, 0.4)=
 0px 0px 0px 1px, rgba(16, 22, 26, 0) 0px 0px 0px, rgba(16, 22, 26, 0) 0px =
0px 0px; background-color: rgb(48, 64, 77); }

.bp3-elevation-0 { box-shadow: rgba(16, 22, 26, 0.15) 0px 0px 0px 1px, rgba=
(16, 22, 26, 0) 0px 0px 0px, rgba(16, 22, 26, 0) 0px 0px 0px; }

.bp3-elevation-0.bp3-dark, .bp3-dark .bp3-elevation-0 { box-shadow: rgba(16=
, 22, 26, 0.4) 0px 0px 0px 1px, rgba(16, 22, 26, 0) 0px 0px 0px, rgba(16, 2=
2, 26, 0) 0px 0px 0px; }

.bp3-elevation-1 { box-shadow: rgba(16, 22, 26, 0.1) 0px 0px 0px 1px, rgba(=
16, 22, 26, 0) 0px 0px 0px, rgba(16, 22, 26, 0.2) 0px 1px 1px; }

.bp3-elevation-1.bp3-dark, .bp3-dark .bp3-elevation-1 { box-shadow: rgba(16=
, 22, 26, 0.2) 0px 0px 0px 1px, rgba(16, 22, 26, 0) 0px 0px 0px, rgba(16, 2=
2, 26, 0.4) 0px 1px 1px; }

.bp3-elevation-2 { box-shadow: rgba(16, 22, 26, 0.1) 0px 0px 0px 1px, rgba(=
16, 22, 26, 0.2) 0px 1px 1px, rgba(16, 22, 26, 0.2) 0px 2px 6px; }

.bp3-elevation-2.bp3-dark, .bp3-dark .bp3-elevation-2 { box-shadow: rgba(16=
, 22, 26, 0.2) 0px 0px 0px 1px, rgba(16, 22, 26, 0.4) 0px 1px 1px, rgba(16,=
 22, 26, 0.4) 0px 2px 6px; }

.bp3-elevation-3 { box-shadow: rgba(16, 22, 26, 0.1) 0px 0px 0px 1px, rgba(=
…
e; box-shadow: rgba(16, 22, 26, 0.15) 0px 1px 0px inset; padding: 10px 20px=
; }

.bp3-dark .bp3-drawer-footer { box-shadow: rgba(16, 22, 26, 0.4) 0px 1px 0p=
x inset; }

.bp3-editable-text { display: inline-block; position: relative; cursor: tex=
t; max-width: 100%; vertical-align: top; white-space: nowrap; }

.bp3-editable-text::before { position: absolute; inset: -3px; border-radius=
: 3px; content: ""; transition: background-color 100ms cubic-bezier(0.4, 1,=
 0.75, 0.9) 0s, box-shadow 100ms cubic-bezier(0.4, 1, 0.75, 0.9) 0s, -webki=
t-box-shadow 100ms cubic-bezier(0.4, 1, 0.75, 0.9) 0s; }

.bp3-editable-text:hover::before { box-shadow: rgba(19, 124, 189, 0) 0px 0p=
x 0px 0px, rgba(19, 124, 189, 0) 0px 0px 0px 0px, rgba(16, 22, 26, 0.15) 0p=
x 0px 0px 1px inset; }

.bp3-editable-text.bp3-editable-text-editing::before { box-shadow: rgb(19, =
124, 189) 0px 0px 0px 1px, rgba(19, 124, 189, 0.3) 0px 0px 0px 3px, rgba(16=
, 22, 26, 0.2) 0px 1px 1px inset; background-color: rgb(255, 255, 255); }

.bp3-editable-text.bp3-disabled::before { box-shadow: none; }

.bp3-editable-text.bp3-intent-primary .bp3-editable-text-input, .bp3-editab=
le-text.bp3-intent-primary .bp3-editable-text-content { color: rgb(19, 124,=
 189); }

.bp3-editable-text.bp3-intent-primary:hover::before { box-shadow: rgba(19, =
124, 189, 0) 0px 0px 0px 0px, rgba(19, 124, 189, 0) 0px 0px 0px 0px, rgba(1=
9, 124, 189, 0.4) 0px 0px 0px 1px inset; }

.bp3-editable-text.bp3-intent-primary.bp3-editable-text-editing::before { b=
ox-shadow: rgb(19, 124, 189) 0px 0px 0px 1px, rgba(19, 124, 189, 0.3) 0px 0=
px 0px 3px, rgba(16, 22, 26, 0.2) 0px 1px 1px inset; }

.bp3-editable-text.bp3-intent-success .bp3-editable-text-input, .bp3-editab=
le-text.bp3-intent-success .bp3-editable-text-content { color: rgb(15, 153,=
 96); }

.bp3-editable-text.bp3-intent-success:hover::before { box-shadow: rgba(15, =
153, 96, 0) 0px 0px 0px 0px, rgba(15, 153, 96, 0) 0px 0px 0px 0px, rgba(15,=
 153, 96, 0.4) 0px 0px 0px 1px inset; }

.bp3-editable-text.bp3-intent-success.bp3-editable-text-editing::before { b=
ox-shadow: rgb(15, 153, 96) 0px 0px 0px 1px, rgba(15, 153, 96, 0.3) 0px 0px=
 0px 3px, rgba(16, 22, 26, 0.2) 0px 1px 1px inset; }

.bp3-editable-text.bp3-intent-warning .bp3-editable-text-input, .bp3-editab=
le-text.bp3-intent-warning .bp3-editable-text-content { color: rgb(217, 130=
, 43); }

.bp3-editable-text.bp3-intent-warning:hover::before { box-shadow: rgba(217,=
 130, 43, 0) 0px 0px 0px 0px, rgba(217, 130, 43, 0) 0px 0px 0px 0px, rgba(2=
17, 130, 43, 0.4) 0px 0px 0px 1px inset; }

.bp3-editable-text.bp3-intent-warning.bp3-editable-text-editing::before { b=
ox-shadow: rgb(217, 130, 43) 0px 0px 0px 1px, rgba(217, 130, 43, 0.3) 0px 0=
px 0px 3px, rgba(16, 22, 26, 0.2) 0px 1px 1px inset; }

.bp3-editable-text.bp3-intent-danger .bp3-editable-text-input, .bp3-editabl=
e-text.bp3-intent-danger .bp3-editable-text-content { color: rgb(219, 55, 5=
5); }

.bp3-editable-text.bp3-intent-danger:hover::before { box-shadow: rgba(219, =
55, 55, 0) 0px 0px 0px 0px, rgba(219, 55, 55, 0) 0px 0px 0px 0px, rgba(219,=
 55, 55, 0.4) 0px 0px 0px 1px inset; }

.bp3-editable-text.bp3-intent-danger.bp3-editable-text-editing::before { bo=
x-shadow: rgb(219, 55, 55) 0px 0px 0px 1px, rgba(219, 55, 55, 0.3) 0px 0px =
0px 3px, rgba(16, 22, 26, 0.2) 0px 1px 1px inset; }

.bp3-dark .bp3-editable-text:hover::before { box-shadow: rgba(19, 124, 189,=
 0) 0px 0px 0px 0px, rgba(19, 124, 189, 0) 0px 0px 0px 0px, rgba(255, 255, =
255, 0.15) 0px 0px 0px 1px inset; }

.bp3-dark .bp3-editable-text.bp3-editable-text-editing::before { box-shadow=
: rgb(19, 124, 189) 0px 0px 0px 1px, rgba(19, 124, 189, 0.3) 0px 0px 0px 3p=
x, rgba(16, 22, 26, 0.3) 0px 0px 0px 1px inset, rgba(16, 22, 26, 0.4) 0px 1=
px 1px inset; background-color: rgba(16, 22, 26, 0.3); }

.bp3-dark .bp3-editable-text.bp3-disabled::before { box-shadow: none; }

.bp3-dark .bp3-editable-text.bp3-intent-primary .bp3-editable-text-content =
{ color: rgb(72, 175, 240); }

.bp3-dark .bp3-editable-text.bp3-intent-primary:hover::before { box-shadow:=
 rgba(72, 175, 240, 0) 0px 0px 0px 0px, rgba(72, 175, 240, 0) 0px 0px 0px 0=
px, rgba(72, 175, 240, 0.4) 0px 0px 0px 1px inset; }

.bp3-dark .bp3-editable-text.bp3-intent-primary.bp3-editable-text-editing::=
before { box-shadow: rgb(72, 175, 240) 0px 0px 0px 1px, rgba(72, 175, 240, =
0.3) 0px 0px 0px 3px, rgba(16, 22, 26, 0.3) 0px 0px 0px 1px inset, rgba(16,=
 22, 26, 0.4) 0px 1px 1px inset; }

.bp3-dark .bp3-editable-text.bp3-intent-success .bp3-editable-text-content =
{ color: rgb(61, 204, 145); }

.bp3-dark .bp3-editable-text.bp3-intent-success:hover::before { box-shadow:=
 rgba(61, 204, 145, 0) 0px 0px 0px 0px, rgba(61, 204, 145, 0) 0px 0px 0px 0=
px, rgba(61, 204, 145, 0.4) 0px 0px 0px 1px inset; }

.bp3-dark .bp3-editable-text.bp3-intent-success.bp3-editable-text-editing::=
before { box-shadow: rgb(61, 204, 145) 0px 0px 0px 1px, rgba(61, 204, 145, =
0.3) 0px 0px 0px 3px, rgba(16, 22, 26, 0.3) 0px 0px 0px 1px inset, rgba(16,=
 22, 26, 0.4) 0px 1px 1px inset; }

.bp3-dark .bp3-editable-text.bp3-intent-warning .bp3-editable-text-content =
{ color: rgb(255, 179, 102); }

.bp3-dark .bp3-editable-text.bp3-intent-warning:hover::before { box-shadow:=
 rgba(255, 179, 102, 0) 0px 0px 0px 0px, rgba(255, 179, 102, 0) 0px 0px 0px=
 0px, rgba(255, 179, 102, 0.4) 0px 0px 0px 1px inset; }

.bp3-dark .bp3-editable-text.bp3-intent-warning.bp3-editable-text-editing::=
before { box-shadow: rgb(255, 179, 102) 0px 0px 0px 1px, rgba(255, 179, 102=
, 0.3) 0px 0px 0px 3px, rgba(16, 22, 26, 0.3) 0px 0px 0px 1px inset, rgba(1=
6, 22, 26, 0.4) 0px 1px 1px inset; }

.bp3-dark .bp3-editable-text.bp3-intent-danger .bp3-editable-text-content {=
 color: rgb(255, 115, 115); }

.bp3-dark .bp3-editable-text.bp3-intent-danger:hover::before { box-shadow: =
rgba(255, 115, 115, 0) 0px 0px 0px 0px, rgba(255, 115, 115, 0) 0px 0px 0px =
0px, rgba(255, 115, 115, 0.4) 0px 0px 0px 1px inset; }

.bp3-dark .bp3-editable-text.bp3-intent-danger.bp3-editable-text-editing::b=
efore { box-shadow: rgb(255, 115, 115) 0px 0px 0px 1px, rgba(255, 115, 115,=
 0.3) 0px 0px 0px 3px, rgba(16, 22, 26, 0.3) 0px 0px 0px 1px inset, rgba(16=
, 22, 26, 0.4) 0px 1px 1px inset; }

.bp3-editable-text-input, .bp3-editable-text-content { display: inherit; po=
sition: relative; min-width: inherit; max-width: inherit; vertical-align: t=
op; text-transform: inherit; letter-spacing: inherit; color: inherit; font:=
 inherit; resize: none; }
…
.bp3-file-upload-input:active::after { box-shadow: rgba(16, 22, 26, 0.2) 0p=
x 0px 0px 1px inset, rgba(16, 22, 26, 0.2) 0px 1px 2px inset; background-co=
lor: rgb(216, 225, 232); background-image: none; }

.bp3-large .bp3-file-upload-input { height: 40px; line-height: 40px; font-s=
ize: 16px; padding-right: 95px; }

.bp3-large .bp3-file-upload-input[type=3D"search"], .bp3-large .bp3-file-up=
load-input.bp3-round { padding: 0px 15px; }

.bp3-large .bp3-file-upload-input::after { min-width: 30px; min-height: 30p=
x; margin: 5px; width: 85px; line-height: 30px; }

.bp3-dark .bp3-file-upload-input { box-shadow: rgba(19, 124, 189, 0) 0px 0p=
x 0px 0px, rgba(19, 124, 189, 0) 0px 0px 0px 0px, rgba(19, 124, 189, 0) 0px=
 0px 0px 0px, rgba(16, 22, 26, 0.3) 0px 0px 0px 1px inset, rgba(16, 22, 26,=
 0.4) 0px 1px 1px inset; background: rgba(16, 22, 26, 0.3); color: rgba(167=
, 182, 194, 0.6); }

.bp3-dark .bp3-file-upload-input::-webkit-input-placeholder { color: rgba(1=
67, 182, 194, 0.6); }

.bp3-dark .bp3-file-upload-input::placeholder { color: rgba(167, 182, 194, =
0.6); }

.bp3-dark .bp3-file-upload-input:focus { box-shadow: rgb(19, 124, 189) 0px =
0px 0px 1px, rgb(19, 124, 189) 0px 0px 0px 1px, rgba(19, 124, 189, 0.3) 0px=
 0px 0px 3px, rgba(16, 22, 26, 0.3) 0px 0px 0px 1px inset, rgba(16, 22, 26,=
 0.4) 0px 1px 1px inset; }

.bp3-dark .bp3-file-upload-input[readonly] { box-shadow: rgba(16, 22, 26, 0=
.4) 0px 0px 0px 1px inset; }

.bp3-dark .bp3-file-upload-input:disabled, .bp3-dark .bp3-file-upload-input=
.bp3-disabled { box-shadow: none; background: rgba(57, 75, 89, 0.5); color:=
…
.bp3-input-group.bp3-small .bp3-input:not(:first-child) { padding-left: 24p=
x; }

.bp3-input-group.bp3-small .bp3-input:not(:last-child) { padding-right: 24p=
x; }

.bp3-input-group.bp3-fill { -webkit-box-flex: 1; flex: 1 1 auto; width: 100=
%; }

.bp3-input-group.bp3-round .bp3-button, .bp3-input-group.bp3-round .bp3-inp=
ut, .bp3-input-group.bp3-round .bp3-tag { border-radius: 30px; }

.bp3-dark .bp3-input-group .bp3-icon { color: rgb(167, 182, 194); }

.bp3-dark .bp3-input-group.bp3-disabled .bp3-icon { color: rgba(167, 182, 1=
94, 0.6); }

.bp3-input-group.bp3-intent-primary .bp3-input { box-shadow: rgba(19, 124, =
189, 0) 0px 0px 0px 0px, rgba(19, 124, 189, 0) 0px 0px 0px 0px, rgb(19, 124=
, 189) 0px 0px 0px 1px inset, rgba(16, 22, 26, 0.15) 0px 0px 0px 1px inset,=
 rgba(16, 22, 26, 0.2) 0px 1px 1px inset; }

.bp3-input-group.bp3-intent-primary .bp3-input:focus { box-shadow: rgb(19, =
124, 189) 0px 0px 0px 1px, rgba(19, 124, 189, 0.3) 0px 0px 0px 3px, rgba(16=
, 22, 26, 0.2) 0px 1px 1px inset; }

.bp3-input-group.bp3-intent-primary .bp3-input[readonly] { box-shadow: rgb(=
19, 124, 189) 0px 0px 0px 1px inset; }

.bp3-input-group.bp3-intent-primary .bp3-input:disabled, .bp3-input-group.b=
p3-intent-primary .bp3-input.bp3-disabled { box-shadow: none; }

.bp3-input-group.bp3-intent-primary > .bp3-icon { color: rgb(16, 107, 163);=
 }

.bp3-dark .bp3-input-group.bp3-intent-primary > .bp3-icon { color: rgb(72, =
175, 240); }

.bp3-input-group.bp3-intent-success .bp3-input { box-shadow: rgba(15, 153, =
96, 0) 0px 0px 0px 0px, rgba(15, 153, 96, 0) 0px 0px 0px 0px, rgb(15, 153, =
96) 0px 0px 0px 1px inset, rgba(16, 22, 26, 0.15) 0px 0px 0px 1px inset, rg=
ba(16, 22, 26, 0.2) 0px 1px 1px inset; }

.bp3-input-group.bp3-intent-success .bp3-input:focus { box-shadow: rgb(15, =
153, 96) 0px 0px 0px 1px, rgba(15, 153, 96, 0.3) 0px 0px 0px 3px, rgba(16, =
22, 26, 0.2) 0px 1px 1px inset; }

.bp3-input-group.bp3-intent-success .bp3-input[readonly] { box-shadow: rgb(=
15, 153, 96) 0px 0px 0px 1px inset; }

.bp3-input-group.bp3-intent-success .bp3-input:disabled, .bp3-input-group.b=
p3-intent-success .bp3-input.bp3-disabled { box-shadow: none; }

.bp3-input-group.bp3-intent-success > .bp3-icon { color: rgb(13, 128, 80); =
}

.bp3-dark .bp3-input-group.bp3-intent-success > .bp3-icon { color: rgb(61, =
204, 145); }

.bp3-input-group.bp3-intent-warning .bp3-input { box-shadow: rgba(217, 130,=
 43, 0) 0px 0px 0px 0px, rgba(217, 130, 43, 0) 0px 0px 0px 0px, rgb(217, 13=
0, 43) 0px 0px 0px 1px inset, rgba(16, 22, 26, 0.15) 0px 0px 0px 1px inset,=
 rgba(16, 22, 26, 0.2) 0px 1px 1px inset; }

.bp3-input-group.bp3-intent-warning .bp3-input:focus { box-shadow: rgb(217,=
 130, 43) 0px 0px 0px 1px, rgba(217, 130, 43, 0.3) 0px 0px 0px 3px, rgba(16=
, 22, 26, 0.2) 0px 1px 1px inset; }

.bp3-input-group.bp3-intent-warning .bp3-input[readonly] { box-shadow: rgb(=
217, 130, 43) 0px 0px 0px 1px inset; }

.bp3-input-group.bp3-intent-warning .bp3-input:disabled, .bp3-input-group.b=
p3-intent-warning .bp3-input.bp3-disabled { box-shadow: none; }

.bp3-input-group.bp3-intent-warning > .bp3-icon { color: rgb(191, 115, 38);=
 }

.bp3-dark .bp3-input-group.bp3-intent-warning > .bp3-icon { color: rgb(255,=
 179, 102); }

.bp3-input-group.bp3-intent-danger .bp3-input { box-shadow: rgba(219, 55, 5=
5, 0) 0px 0px 0px 0px, rgba(219, 55, 55, 0) 0px 0px 0px 0px, rgb(219, 55, 5=
5) 0px 0px 0px 1px inset, rgba(16, 22, 26, 0.15) 0px 0px 0px 1px inset, rgb=
a(16, 22, 26, 0.2) 0px 1px 1px inset; }

.bp3-input-group.bp3-intent-danger .bp3-input:focus { box-shadow: rgb(219, =
55, 55) 0px 0px 0px 1px, rgba(219, 55, 55, 0.3) 0px 0px 0px 3px, rgba(16, 2=
2, 26, 0.2) 0px 1px 1px inset; }

.bp3-input-group.bp3-intent-danger .bp3-input[readonly] { box-shadow: rgb(2=
19, 55, 55) 0px 0px 0px 1px inset; }

.bp3-input-group.bp3-intent-danger .bp3-input:disabled, .bp3-input-group.bp=
3-intent-danger .bp3-input.bp3-disabled { box-shadow: none; }

.bp3-input-group.bp3-intent-danger > .bp3-icon { color: rgb(194, 48, 48); }

.bp3-dark .bp3-input-group.bp3-intent-danger > .bp3-icon { color: rgb(255, =
115, 115); }

.bp3-input { outline: none; border: none; border-radius: 3px; box-shadow: r=
gba(19, 124, 189, 0) 0px 0px 0px 0px, rgba(19, 124, 189, 0) 0px 0px 0px 0px=
, rgba(16, 22, 26, 0.15) 0px 0px 0px 1px inset, rgba(16, 22, 26, 0.2) 0px 1=
px 1px inset; background: rgb(255, 255, 255); height: 30px; padding: 0px 10=
px; vertical-align: middle; line-height: 30px; color: rgb(24, 32, 38); font=
-size: 14px; font-weight: 400; transition: box-shadow 100ms cubic-bezier(0.=
4, 1, 0.75, 0.9) 0s, -webkit-box-shadow 100ms cubic-bezier(0.4, 1, 0.75, 0.=
9) 0s; appearance: none; }

.bp3-input::-webkit-input-placeholder { opacity: 1; color: rgba(92, 112, 12=
8, 0.6); }

.bp3-input::placeholder { opacity: 1; color: rgba(92, 112, 128, 0.6); }

.bp3-input:focus, .bp3-input.bp3-active { box-shadow: rgb(19, 124, 189) 0px=
 0px 0px 1px, rgba(19, 124, 189, 0.3) 0px 0px 0px 3px, rgba(16, 22, 26, 0.2=
) 0px 1px 1px inset; }

.bp3-input[type=3D"search"], .bp3-input.bp3-round { border-radius: 30px; bo=
x-sizing: border-box; padding-left: 10px; }

.bp3-input[readonly] { box-shadow: rgba(16, 22, 26, 0.15) 0px 0px 0px 1px i=
nset; }

.bp3-input:disabled, .bp3-input.bp3-disabled { box-shadow: none; background=
: rgba(206, 217, 224, 0.5); cursor: not-allowed; color: rgba(92, 112, 128, =
0.6); resize: none; }

.bp3-input.bp3-large { height: 40px; line-height: 40px; font-size: 16px; }

.bp3-input.bp3-large[type=3D"search"], .bp3-input.bp3-large.bp3-round { pad=
ding: 0px 15px; }

.bp3-input.bp3-small { height: 24px; padding-right: 8px; padding-left: 8px;=
 line-height: 24px; font-size: 12px; }

.bp3-input.bp3-small[type=3D"search"], .bp3-input.bp3-small.bp3-round { pad=
ding: 0px 12px; }

.bp3-input.bp3-fill { -webkit-box-flex: 1; flex: 1 1 auto; width: 100%; }

.bp3-dark .bp3-input { box-shadow: rgba(19, 124, 189, 0) 0px 0px 0px 0px, r=
gba(19, 124, 189, 0) 0px 0px 0px 0px, rgba(19, 124, 189, 0) 0px 0px 0px 0px=
, rgba(16, 22, 26, 0.3) 0px 0px 0px 1px inset, rgba(16, 22, 26, 0.4) 0px 1p=
x 1px inset; background: rgba(16, 22, 26, 0.3); color: rgb(245, 248, 250); =
}

.bp3-dark .bp3-input::-webkit-input-placeholder { color: rgba(167, 182, 194=
, 0.6); }

.bp3-dark .bp3-input::placeholder { color: rgba(167, 182, 194, 0.6); }

.bp3-dark .bp3-input:focus { box-shadow: rgb(19, 124, 189) 0px 0px 0px 1px,=
 rgb(19, 124, 189) 0px 0px 0px 1px, rgba(19, 124, 189, 0.3) 0px 0px 0px 3px=
, rgba(16, 22, 26, 0.3) 0px 0px 0px 1px inset, rgba(16, 22, 26, 0.4) 0px 1p=
x 1px inset; }

.bp3-dark .bp3-input[readonly] { box-shadow: rgba(16, 22, 26, 0.4) 0px 0px =
0px 1px inset; }

.bp3-dark .bp3-input:disabled, .bp3-dark .bp3-input.bp3-disabled { box-shad=
ow: none; background: rgba(57, 75, 89, 0.5); color: rgba(167, 182, 194, 0.6=
); }

.bp3-input.bp3-intent-primary { box-shadow: rgba(19, 124, 189, 0) 0px 0px 0=
px 0px, rgba(19, 124, 189, 0) 0px 0px 0px 0px, rgb(19, 124, 189) 0px 0px 0p=
x 1px inset, rgba(16, 22, 26, 0.15) 0px 0px 0px 1px inset, rgba(16, 22, 26,=
 0.2) 0px 1px 1px inset; }

.bp3-input.bp3-intent-primary:focus { box-shadow: rgb(19, 124, 189) 0px 0px=
 0px 1px, rgba(19, 124, 189, 0.3) 0px 0px 0px 3px, rgba(16, 22, 26, 0.2) 0p=
x 1px 1px inset; }

.bp3-input.bp3-intent-primary[readonly] { box-shadow: rgb(19, 124, 189) 0px=
 0px 0px 1px inset; }

.bp3-input.bp3-intent-primary:disabled, .bp3-input.bp3-intent-primary.bp3-d=
isabled { box-shadow: none; }

.bp3-dark .bp3-input.bp3-intent-primary { box-shadow: rgba(19, 124, 189, 0)=
 0px 0px 0px 0px, rgba(19, 124, 189, 0) 0px 0px 0px 0px, rgba(19, 124, 189,=
 0) 0px 0px 0px 0px, rgb(19, 124, 189) 0px 0px 0px 1px inset, rgba(16, 22, =
26, 0.3) 0px 0px 0px 1px inset, rgba(16, 22, 26, 0.4) 0px 1px 1px inset; }

.bp3-dark .bp3-input.bp3-intent-primary:focus { box-shadow: rgb(19, 124, 18=
9) 0px 0px 0px 1px, rgb(19, 124, 189) 0px 0px 0px 1px, rgba(19, 124, 189, 0=
.3) 0px 0px 0px 3px, rgba(16, 22, 26, 0.3) 0px 0px 0px 1px inset, rgba(16, =
22, 26, 0.4) 0px 1px 1px inset; }

.bp3-dark .bp3-input.bp3-intent-primary[readonly] { box-shadow: rgb(19, 124=
, 189) 0px 0px 0px 1px inset; }

.bp3-dark .bp3-input.bp3-intent-primary:disabled, .bp3-dark .bp3-input.bp3-=
intent-primary.bp3-disabled { box-shadow: none; }

.bp3-input.bp3-intent-success { box-shadow: rgba(15, 153, 96, 0) 0px 0px 0p=
x 0px, rgba(15, 153, 96, 0) 0px 0px 0px 0px, rgb(15, 153, 96) 0px 0px 0px 1=
px inset, rgba(16, 22, 26, 0.15) 0px 0px 0px 1px inset, rgba(16, 22, 26, 0.=
2) 0px 1px 1px inset; }

.bp3-input.bp3-intent-success:focus { box-shadow: rgb(15, 153, 96) 0px 0px =
0px 1px, rgba(15, 153, 96, 0.3) 0px 0px 0px 3px, rgba(16, 22, 26, 0.2) 0px =
1px 1px inset; }

.bp3-input.bp3-intent-success[readonly] { box-shadow: rgb(15, 153, 96) 0px =
0px 0px 1px inset; }

.bp3-input.bp3-intent-success:disabled, .bp3-input.bp3-intent-success.bp3-d=
isabled { box-shadow: none; }

.bp3-dark .bp3-input.bp3-intent-success { box-shadow: rgba(15, 153, 96, 0) =
0px 0px 0px 0px, rgba(15, 153, 96, 0) 0px 0px 0px 0px, rgba(15, 153, 96, 0)=
 0px 0px 0px 0px, rgb(15, 153, 96) 0px 0px 0px 1px inset, rgba(16, 22, 26, =
0.3) 0px 0px 0px 1px inset, rgba(16, 22, 26, 0.4) 0px 1px 1px inset; }

.bp3-dark .bp3-input.bp3-intent-success:focus { box-shadow: rgb(15, 153, 96=
) 0px 0px 0px 1px, rgb(15, 153, 96) 0px 0px 0px 1px, rgba(15, 153, 96, 0.3)=
 0px 0px 0px 3px, rgba(16, 22, 26, 0.3) 0px 0px 0px 1px inset, rgba(16, 22,=
 26, 0.4) 0px 1px 1px inset; }

.bp3-dark .bp3-input.bp3-intent-success[readonly] { box-shadow: rgb(15, 153=
, 96) 0px 0px 0px 1px inset; }

.bp3-dark .bp3-input.bp3-intent-success:disabled, .bp3-dark .bp3-input.bp3-=
intent-success.bp3-disabled { box-shadow: none; }

.bp3-input.bp3-intent-warning { box-shadow: rgba(217, 130, 43, 0) 0px 0px 0=
px 0px, rgba(217, 130, 43, 0) 0px 0px 0px 0px, rgb(217, 130, 43) 0px 0px 0p=
x 1px inset, rgba(16, 22, 26, 0.15) 0px 0px 0px 1px inset, rgba(16, 22, 26,=
 0.2) 0px 1px 1px inset; }

.bp3-input.bp3-intent-warning:focus { box-shadow: rgb(217, 130, 43) 0px 0px=
 0px 1px, rgba(217, 130, 43, 0.3) 0px 0px 0px 3px, rgba(16, 22, 26, 0.2) 0p=
x 1px 1px inset; }

.bp3-input.bp3-intent-warning[readonly] { box-shadow: rgb(217, 130, 43) 0px=
 0px 0px 1px inset; }

.bp3-input.bp3-intent-warning:disabled, .bp3-input.bp3-intent-warning.bp3-d=
isabled { box-shadow: none; }

.bp3-dark .bp3-input.bp3-intent-warning { box-shadow: rgba(217, 130, 43, 0)=
 0px 0px 0px 0px, rgba(217, 130, 43, 0) 0px 0px 0px 0px, rgba(217, 130, 43,=
 0) 0px 0px 0px 0px, rgb(217, 130, 43) 0px 0px 0px 1px inset, rgba(16, 22, =
26, 0.3) 0px 0px 0px 1px inset, rgba(16, 22, 26, 0.4) 0px 1px 1px inset; }

.bp3-dark .bp3-input.bp3-intent-warning:focus { box-shadow: rgb(217, 130, 4=
3) 0px 0px 0px 1px, rgb(217, 130, 43) 0px 0px 0px 1px, rgba(217, 130, 43, 0=
.3) 0px 0px 0px 3px, rgba(16, 22, 26, 0.3) 0px 0px 0px 1px inset, rgba(16, =
22, 26, 0.4) 0px 1px 1px inset; }

.bp3-dark .bp3-input.bp3-intent-warning[readonly] { box-shadow: rgb(217, 13=
0, 43) 0px 0px 0px 1px inset; }

.bp3-dark .bp3-input.bp3-intent-warning:disabled, .bp3-dark .bp3-input.bp3-=
intent-warning.bp3-disabled { box-shadow: none; }

.bp3-input.bp3-intent-danger { box-shadow: rgba(219, 55, 55, 0) 0px 0px 0px=
 0px, rgba(219, 55, 55, 0) 0px 0px 0px 0px, rgb(219, 55, 55) 0px 0px 0px 1p=
x inset, rgba(16, 22, 26, 0.15) 0px 0px 0px 1px inset, rgba(16, 22, 26, 0.2=
) 0px 1px 1px inset; }

.bp3-input.bp3-intent-danger:focus { box-shadow: rgb(219, 55, 55) 0px 0px 0=
px 1px, rgba(219, 55, 55, 0.3) 0px 0px 0px 3px, rgba(16, 22, 26, 0.2) 0px 1=
px 1px inset; }

.bp3-input.bp3-intent-danger[readonly] { box-shadow: rgb(219, 55, 55) 0px 0=
px 0px 1px inset; }

.bp3-input.bp3-intent-danger:disabled, .bp3-input.bp3-intent-danger.bp3-dis=
abled { box-shadow: none; }

.bp3-dark .bp3-input.bp3-intent-danger { box-shadow: rgba(219, 55, 55, 0) 0=
px 0px 0px 0px, rgba(219, 55, 55, 0) 0px 0px 0px 0px, rgba(219, 55, 55, 0) =
0px 0px 0px 0px, rgb(219, 55, 55) 0px 0px 0px 1px inset, rgba(16, 22, 26, 0=
.3) 0px 0px 0px 1px inset, rgba(16, 22, 26, 0.4) 0px 1px 1px inset; }

.bp3-dark .bp3-input.bp3-intent-danger:focus { box-shadow: rgb(219, 55, 55)=
 0px 0px 0px 1px, rgb(219, 55, 55) 0px 0px 0px 1px, rgba(219, 55, 55, 0.3) =
0px 0px 0px 3px, rgba(16, 22, 26, 0.3) 0px 0px 0px 1px inset, rgba(16, 22, =
26, 0.4) 0px 1px 1px inset; }

.bp3-dark .bp3-input.bp3-intent-danger[readonly] { box-shadow: rgb(219, 55,=
 55) 0px 0px 0px 1px inset; }

.bp3-dark .bp3-input.bp3-intent-danger:disabled, .bp3-dark .bp3-input.bp3-i=
ntent-danger.bp3-disabled { box-shadow: none; }

textarea.bp3-input { max-width: 100%; padding: 10px; }

textarea.bp3-input, textarea.bp3-input.bp3-large, textarea.bp3-input.bp3-sm=
all { height: auto; line-height: inherit; }

textarea.bp3-input.bp3-small { padding: 8px; }

.bp3-dark textarea.bp3-input { box-shadow: rgba(19, 124, 189, 0) 0px 0px 0p=
x 0px, rgba(19, 124, 189, 0) 0px 0px 0px 0px, rgba(19, 124, 189, 0) 0px 0px=
 0px 0px, rgba(16, 22, 26, 0.3) 0px 0px 0px 1px inset, rgba(16, 22, 26, 0.4=
) 0px 1px 1px inset; background: rgba(16, 22, 26, 0.3); color: rgb(245, 248=
, 250); }

.bp3-dark textarea.bp3-input::-webkit-input-placeholder { color: rgba(167, =
182, 194, 0.6); }

.bp3-dark textarea.bp3-input::placeholder { color: rgba(167, 182, 194, 0.6)=
; }

.bp3-dark textarea.bp3-input:focus { box-shadow: rgb(19, 124, 189) 0px 0px =
0px 1px, rgb(19, 124, 189) 0px 0px 0px 1px, rgba(19, 124, 189, 0.3) 0px 0px=
 0px 3px, rgba(16, 22, 26, 0.3) 0px 0px 0px 1px inset, rgba(16, 22, 26, 0.4=
) 0px 1px 1px inset; }

.bp3-dark textarea.bp3-input[readonly] { box-shadow: rgba(16, 22, 26, 0.4) =
0px 0px 0px 1px inset; }

.bp3-dark textarea.bp3-input:disabled, .bp3-dark textarea.bp3-input.bp3-dis=
abled { box-shadow: none; background: rgba(57, 75, 89, 0.5); color: rgba(16=
…
.bp3-dark .bp3-tag-input .bp3-tag-input-icon, .bp3-tag-input.bp3-dark .bp3-=
tag-input-icon { color: rgb(167, 182, 194); }

.bp3-dark .bp3-tag-input .bp3-input-ghost, .bp3-tag-input.bp3-dark .bp3-inp=
ut-ghost { color: rgb(245, 248, 250); }

.bp3-dark .bp3-tag-input .bp3-input-ghost::-webkit-input-placeholder, .bp3-=
tag-input.bp3-dark .bp3-input-ghost::-webkit-input-placeholder { color: rgb=
a(167, 182, 194, 0.6); }

.bp3-dark .bp3-tag-input .bp3-input-ghost::placeholder, .bp3-tag-input.bp3-=
dark .bp3-input-ghost::placeholder { color: rgba(167, 182, 194, 0.6); }

.bp3-dark .bp3-tag-input.bp3-active, .bp3-tag-input.bp3-dark.bp3-active { b=
ox-shadow: rgb(19, 124, 189) 0px 0px 0px 1px, rgb(19, 124, 189) 0px 0px 0px=
 1px, rgba(19, 124, 189, 0.3) 0px 0px 0px 3px, rgba(16, 22, 26, 0.3) 0px 0p=
x 0px 1px inset, rgba(16, 22, 26, 0.4) 0px 1px 1px inset; background-color:=
 rgba(16, 22, 26, 0.3); }

.bp3-dark .bp3-tag-input.bp3-active.bp3-intent-primary, .bp3-tag-input.bp3-=
dark.bp3-active.bp3-intent-primary { box-shadow: rgb(16, 107, 163) 0px 0px =
0px 1px, rgba(16, 107, 163, 0.3) 0px 0px 0px 3px, rgba(16, 22, 26, 0.3) 0px=
 0px 0px 1px inset, rgba(16, 22, 26, 0.4) 0px 1px 1px inset; }

.bp3-dark .bp3-tag-input.bp3-active.bp3-intent-success, .bp3-tag-input.bp3-=
dark.bp3-active.bp3-intent-success { box-shadow: rgb(13, 128, 80) 0px 0px 0=
px 1px, rgba(13, 128, 80, 0.3) 0px 0px 0px 3px, rgba(16, 22, 26, 0.3) 0px 0=
px 0px 1px inset, rgba(16, 22, 26, 0.4) 0px 1px 1px inset; }

.bp3-dark .bp3-tag-input.bp3-active.bp3-intent-warning, .bp3-tag-input.bp3-=
dark.bp3-active.bp3-intent-warning { box-shadow: rgb(191, 115, 38) 0px 0px =
0px 1px, rgba(191, 115, 38, 0.3) 0px 0px 0px 3px, rgba(16, 22, 26, 0.3) 0px=
 0px 0px 1px inset, rgba(16, 22, 26, 0.4) 0px 1px 1px inset; }

.bp3-dark .bp3-tag-input.bp3-active.bp3-intent-danger, .bp3-tag-input.bp3-d=
ark.bp3-active.bp3-intent-danger { box-shadow: rgb(194, 48, 48) 0px 0px 0px=
 1px, rgba(194, 48, 48, 0.3) 0px 0px 0px 3px, rgba(16, 22, 26, 0.3) 0px 0px=
 0px 1px inset, rgba(16, 22, 26, 0.4) 0px 1px 1px inset; }

.bp3-input-ghost { border: none; box-shadow: none; background: none; paddin=
g: 0px; }

.bp3-input-ghost::-webkit-input-placeholder { opacity: 1; color: rgba(92, 1=
12, 128, 0.6); }

.bp3-input-ghost::placeholder { opacity: 1; color: rgba(92, 112, 128, 0.6);=
…
